STM32F411_Discovery/STM32F411Discovery_SineWave_TFLite/sine_model.tflite (tflite, 3168 bytes, 5 tensors)

arith.constant f4 [1, 16]
0	0x3e068d2b	0.13139789
1	0xbe83a887	-0.25714514
2	0xbec7df02	-0.3903733
3	0xbebe9655	-0.3722407
4	0xbe4b6086	-0.1986104
5	0xbeaa672c	-0.3328184
6	0xbf20d5ef	-0.62826437
7	0xbf0b6279	-0.5444713
8	0xbf1c0c87	-0.60956615
9	0x3f0d2964	0.5514128
10	0xbf039680	-0.5140152
11	0xbf11512b	-0.5676448
12	0xbe41b202	-0.18915561
13	0xbf020325	-0.5078605
14	0xbf2b007c	-0.66797614
15	0x3f2cf709	0.67564446

arith.constant1 f4 [16, 16]
0	0xbe7c0360	-0.24610662
1	0x3dfff392	0.12497629
2	0x3e567bc6	0.20945653
3	0x3eb15a23	0.3463908
4	0xbeb4b18b	-0.35291705
5	0x3ed52391	0.41628698
6	0xbe95dda1	-0.29270652
7	0xbeac1be5	-0.33615032
8	0xbd88172c	-0.06645045
9	0x3da4ae9f	0.08041119
10	0x3e9bfbde	0.30465597
11	0x3ee3b140	0.4447117
12	0xbe0cedea	-0.13762632
13	0xbe95c2be	-0.2925014
14	0xbe193e9a	-0.14965287
15	0xbe07e800	-0.13272095
16	0x3e0c6ab6	0.13712582
17	0x3d68a184	0.05679466
18	0x3e536176	0.20642647
19	0xbe26d194	-0.16290885
20	0xbe51c9c1	-0.2048712
21	0x3ea8f5ef	0.33000132
22	0x3d1ccf68	0.038283736
23	0x3e456a5e	0.19278857
24	0x3e8f24dd	0.27957812
25	0xbe842798	-0.25811458
26	0x3ea963f2	0.33084065
27	0xbe9c108e	-0.3048138
28	0x3cd25590	0.025675565
29	0x3db4c264	0.088261396
30	0xbd95acc0	-0.0730834
31	0xbe312202	-0.17298129
32	0xbea8b278	-0.3294866
33	0xbecc7674	-0.39934123
34	0x3e596e4a	0.21233478
35	0x3e0fb206	0.14032754
36	0xbe421ef2	-0.18957117
37	0xbdaa22a4	-0.083073884
38	0xbe8e5222	-0.27797037
39	0x3ecde9fb	0.40217575
40	0x3eabbefd	0.3354415
41	0x3db8555c	0.09000656
42	0xbe1739e8	-0.14768183
43	0xbdd13d30	-0.10216749
44	0x3e4087aa	0.18801752
45	0x3e9efcdb	0.31052288
46	0x3e69c17e	0.22827718
47	0xbe628cdb	-0.22124045
48	0x3ddc1b14	0.10747352
49	0x3e1eb55f	0.15498875
50	0xbe33d4b8	-0.17561615
51	0xbeda2a9d	-0.42610636
52	0x3e66da0e	0.22544119
53	0xbd76d728	-0.060263783
54	0x3df790fc	0.120882004
55	0x3eb02f17	0.34410927
56	0xbe1be968	-0.15225756
57	0x3ee1e693	0.44121227
58	0xbe4e080c	-0.20120257
59	0x3e93633f	0.28786656
60	0x3e7a8976	0.244665
61	0x3e803221	0.25038245
62	0xbdf8a01c	-0.121399134
63	0x3e10175a	0.14071408
64	0xbe6fbb4c	-0.23411292
65	0xbebad36f	-0.36489436
66	0x3e9fa199	0.31177977
67	0x3e98e1a7	0.2985966
68	0xbda5ff70	-0.081053615
69	0x3dc0ec8c	0.09420118
70	0xbe710477	-0.2353686
71	0x3dbb0df4	0.09133521
72	0xbd153078	-0.036423177
73	0x3e454e26	0.19268093
74	0x3d9eaee4	0.077482015
75	0xbd2000bc	-0.0390632
76	0x3ea1fbeb	0.3163751
77	0xbde4b6ac	-0.111676544
78	0xbd70c050	-0.058777153
79	0x3bf86900	0.0075808764
80	0xbe8af4b6	-0.27139825
81	0x3e9aa35b	0.30202755
82	0xbe2e1dc2	-0.17003539
83	0x3e333a0e	0.17502615
84	0x3eb70be1	0.3575125
85	0xbd67c7a0	-0.05658686
86	0x3d006bf0	0.031352937
87	0xbe3c6dd5	-0.18401273
88	0xbe314fe8	-0.17315638
89	0xbbdc7fb2	-0.0067290897
90	0x3df7475e	0.12074159
91	0x3e912691	0.28349736
92	0xbd8a7818	-0.06761187
93	0x3e0a86e6	0.13528022
94	0x3bf0a300	0.00734365
95	0xbe39877c	-0.1811809
96	0xbe5aa432	-0.21351698
97	0xbf5e41c6	-0.8681911
98	0xbd95eae4	-0.073201925
99	0x3eba69ef	0.36408946
100	0xbe525f2b	-0.20544116
101	0xbdc80b7c	-0.097678155
102	0x3e66a6e2	0.22524598
103	0xbea712fe	-0.32631677
104	0x3eae191d	0.34003535
105	0xbf253586	-0.64534795
106	0xbf1a967a	-0.6038586
107	0x3e14b881	0.14523508
108	0xbec98ac3	-0.3936368
109	0xbece45a8	-0.40287519
110	0x3d70cbe8	0.05878821
111	0xbed59cf8	-0.4172132
112	0x3ec006e1	0.37505248
113	0x3f099dcc	0.53756404
114	0xbea6df4a	-0.3259223
115	0x3e87de19	0.26536635
116	0x3ce02280	0.0273602
117	0xbe31c378	-0.17359722
118	0x3e6e295a	0.23257962
119	0x3d02b2c8	0.03190878
120	0x3e39e53a	0.18153849
121	0xbd7b50c1	-0.06135631
122	0x3c485d29	0.012229242
123	0xbe18e601	-0.1493149
124	0xbe332e32	-0.17498091
125	0xbdd1e14c	-0.1024805
126	0x3dd1496c	0.10219082
127	0x3e1f9812	0.15585354
128	0xbe1303bc	-0.14356893
129	0x3e5b465a	0.21413556
130	0x3e5b62ee	0.21424457
131	0x3e52a336	0.20570073
132	0xbed3b1d0	-0.41346598
133	0x3df65abc	0.12029025
134	0xbae56e00	-0.0017504096
135	0xbe74e919	-0.23917045
136	0x3db5e02c	0.08880648
137	0x3e5987ba	0.21243182
138	0x3ee03bf6	0.43795747
139	0xbaa9d139	-0.001295603
140	0xbea91c18	-0.33029246
141	0x3e680352	0.22657517
142	0x3ed0acd5	0.4075686
143	0x3d0b2080	0.03396654
144	0xbe290850	-0.16507077
145	0xbd70f087	-0.058823135
146	0x3edd467b	0.43217835
147	0xbd48b568	-0.049001127
148	0xbed30d14	-0.41220915
149	0x3e4f113a	0.20221415
150	0xbec7c696	-0.39018697
151	0x3e5a4132	0.21313933
152	0x3e985097	0.29748985
153	0xbece7fc6	-0.40331858
154	0x3ecece5f	0.40391824
155	0x3ebc683f	0.36798283
156	0x3eb1a90f	0.34699294
157	0xbe93898c	-0.28815877
158	0x3ed41c7f	0.4142799
159	0x3e678d16	0.22612414
160	0xbe90ce49	-0.28282383
161	0xbe89ad20	-0.26889896
162	0x3eb4c453	0.35306033
163	0xbecb5dac	-0.39719903
164	0xbcda01f0	-0.026612252
165	0xbed93634	-0.42424166
166	0xbdaca8f8	-0.08430666
167	0x3ed8e2f9	0.42360666
168	0x3e8c0409	0.2734683
169	0x3f0bb37e	0.5457076
170	0x3eed4eb9	0.46349123
171	0x3e9c8041	0.305666
172	0xbe3d9509	-0.18513884
173	0x3e9a126f	0.3009219
174	0x3e4fc1b6	0.20288739
175	0x3eb12847	0.34601042
176	0x3dfbe71c	0.1229994
177	0x3e43b77e	0.19112965
178	0xbe725908	-0.23666775
179	0x3d9ea644	0.077465564
180	0x3eba3619	0.36369398
181	0x3ec109ff	0.3770294
182	0x3e750ec6	0.23931417
183	0xbd7c79f8	-0.061639756
184	0x3e6b11e2	0.2295604
185	0xbde1f530	-0.11033094
186	0xbea0f6de	-0.31438345
187	0xbed18b7b	-0.40926728
188	0xbe6bfde1	-0.23046066
189	0xbebcc1a9	-0.368665
190	0xbe83a966	-0.25715178
191	0x3ec2c179	0.38038233
192	0x3e9e4e09	0.3091891
193	0x3de258a9	0.11052067
194	0xbe61eb27	-0.2206236
195	0x3e69b5d2	0.22823265
196	0x3e9bd68f	0.30437133
197	0xbec28152	-0.3798929
198	0x3e80a03f	0.25122258
199	0x3c844fc0	0.016151309
200	0x3dbb6944	0.09150937
201	0x3dae27ff	0.085037224
202	0x3da3cc59	0.079979606
203	0xbec30e74	-0.38096964
204	0x3e24b6a6	0.160853
205	0xbe70652c	-0.23476094
206	0xbd467e78	-0.048460454
207	0x3ec16fb9	0.3778055
208	0xbe6ab3e5	-0.22920187
209	0xbe90f2f4	-0.2831036
210	0x3cc377a0	0.023860753
211	0xbe9132e4	-0.2835914
212	0x3ecafb7d	0.39644995
213	0xbe1a2fa0	-0.1505723
214	0xbe805bf4	-0.25070155
215	0xbe583911	-0.21115519
216	0x3e92411b	0.28565297
217	0xbe453b0a	-0.19260803
218	0xbd108690	-0.03528458
219	0xbe95c670	-0.29252958
220	0x3e52a9fa	0.20572653
221	0xbcb25290	-0.021767884
222	0x3eadb931	0.33930352
223	0x3e8dd3db	0.27700695
224	0x3ebfc343	0.3745366
225	0xbf30b4a8	-0.6902566
226	0x3dd4ed0c	0.103967756
227	0x3e8395f3	0.2570034
228	0x3e92f937	0.2870576
229	0xbe9ebcb3	-0.3100334
230	0xbe1ac33a	-0.15113536
231	0xbebe4c0a	-0.37167388
232	0x3e842d59	0.25815848
233	0xbf8942f4	-1.0723557
234	0xbeb5f09e	-0.3553514
235	0x3e394d2e	0.18095848
236	0xbe6b89db	-0.23001806
237	0x3e011a3e	0.12607667
238	0xbeb0d704	-0.34539044
239	0x3eda534d	0.42641678
240	0xbec94c3b	-0.39315972
241	0xbe72c77b	-0.23708908
242	0xbdbc7a9c	-0.092030734
243	0xbec76386	-0.38943118
244	0xbe418e2f	-0.18901895
245	0x3e1cea26	0.15323696
246	0x3ddcdce4	0.10784319
247	0xbe98d21a	-0.29847795
248	0x3e42ce22	0.19023946
249	0x3daf77ff	0.08567809
250	0x3eafe922	0.34357554
251	0x3e87fa88	0.26558328
252	0x3ec0fec3	0.37694368
253	0xbe3c2a94	-0.18375617
254	0xbe5a1646	-0.21297559
255	0xbe93da7e	-0.28877634

sequential_1/dense_1_2/BiasAdd/ReadVariableOp f4 [16]
0	0x3e72a499	0.23695602
1	0xbc47d08d	-0.0121957185
2	0x00000000	0.0
3	0xbe4ce003	-0.20007329
4	0xbad6cba4	-0.0016387594
5	0xbee89539	-0.45426348
6	0x3ec39836	0.38202065
7	0xbe8f4274	-0.27980387
8	0xbecb216d	-0.3967394
9	0x3e803a5e	0.2504453
10	0xbed3de4b	-0.41380534
11	0x00000000	0.0
12	0xbc414536	-0.011796286
13	0x00000000	0.0
14	0x3efd104f	0.49426505
15	0x3e7e56b4	0.24837762

sequential_1/dense_1/BiasAdd/ReadVariableOp f4 [16]
0	0x00000000	0.0
1	0xbdad3bc9	-0.08458669
2	0x00000000	0.0
3	0x00000000	0.0
4	0x00000000	0.0
5	0x00000000	0.0
6	0x00000000	0.0
7	0x00000000	0.0
8	0x00000000	0.0
9	0xbeb95505	-0.36197677
10	0xbb330d23	-0.0027321063
11	0x3e0faac9	0.14029993
12	0x00000000	0.0
13	0x00000000	0.0
14	0x00000000	0.0
15	0x00000000	0.0

sequential_1/dense_1/MatMul f4 [16, 1]
0	0xbe5b7b90	-0.21433854
1	0x3f00758f	0.5017938
2	0xbee054c2	-0.43814665
3	0xbe85b557	-0.26114914
4	0xbdc3ef7c	-0.095671624
5	0xbeae8cd6	-0.34091824
6	0xbeb665b6	-0.35624474
7	0xbf00397e	-0.50087726
8	0xbe86692a	-0.2625211
9	0x3eafc361	0.3432875
10	0x3ef0caa5	0.47029606
11	0x3e91fc85	0.2851297
12	0xbeadd96c	-0.33954942
13	0xbe3694ec	-0.17830247
14	0xbe90fd00	-0.28318024
15	0xbed6b0ea	-0.4193185
