STM32F411_Discovery/STM32F411Discovery_CubeAI_GestureRecognition_MPU9250_AHRS_FreeRTOS/imu_model.tflite (tflite, 4504 bytes, 3 tensors)

tfl.pseudo_qconst1 i1 [3, 16]
00000000: f541 d9a6 81d1 d9ad fec7 5fc6 c96d 2496
00000010: fb24 bf68 684b 0c02 fa74 a825 348d 7fe9
00000020: 4e81 31b4 faa0 3b38 c4af d5ae 83fa b114
-11 65 -39 -90 -127 -47 -39 -83
-2 -57 95 -58 -55 109 36 -106
-5 36 -65 104 104 75 12 2
-6 116 -88 37 52 -115 127 -23
78 -127 49 -76 -6 -96 59 56
-60 -81 -43 -82 -125 -6 -79 20

tfl.pseudo_qconst3 i1 [16, 32]
00000000: 1813 0feb cb7f 1714 df47 3e38 0c13 0ff7
00000010: d0f2 2ce9 3739 2a42 0ebe f5af 6acb fc1e
00000020: c907 3742 7fa9 4161 08aa ec0c 77b6 1f04
00000030: 435c d74e ef47 1ef8 ee15 0558 ff46 f732
00000040: 2cbd 8c95 c6b3 11e7 eec7 4b99 8107 fa60
00000050: 16d5 1b60 c5e3 48d2 13fa aeab 2812 940b
00000060: f68c 3cc8 07d2 48f9 5da8 5f9e 08cf 3f2e
00000070: cfb2 e47d a63f a54d 1623 43ed 0207 8149
00000080: 56ae 15e5 4381 39c2 e9ed 04a9 c793 1733
00000090: bfc5 ef25 d442 c804 c05e 2d23 50e6 fd1e
000000a0: 46c3 e3b0 41c6 0824 2b10 07a0 e1cc 2006
000000b0: e1b4 d06f aa47 8df2 a3e4 2f10 031e 087f
000000c0: 5d65 da14 c120 27dc f939 744e ea71 cc09
000000d0: def1 757f 4a6a 115c 23c6 741e 6bc4 07db
000000e0: 5665 1ba4 2924 381d 3e1a 264b 0e7f 0813
000000f0: ce0a 1c43 151f ad14 16ee 22d8 46d6 dbfe
24 19 15 -21 -53 127 23 20
-33 71 62 56 12 19 15 -9
-48 -14 44 -23 55 57 42 66
14 -66 -11 -81 106 -53 -4 30
-55 7 55 66 127 -87 65 97
8 -86 -20 12 119 -74 31 4
67 92 -41 78 -17 71 30 -8
-18 21 5 88 -1 70 -9 50
44 -67 -116 -107 -58 -77 17 -25
-18 -57 75 -103 -127 7 -6 96
22 -43 27 96 -59 -29 72 -46
19 -6 -82 -85 40 18 -108 11
-10 -116 60 -56 7 -46 72 -7
93 -88 95 -98 8 -49 63 46
-49 -78 -28 125 -90 63 -91 77
22 35 67 -19 2 7 -127 73
86 -82 21 -27 67 -127 57 -62
-23 -19 4 -87 -57 -109 23 51
-65 -59 -17 37 -44 66 -56 4
-64 94 45 35 80 -26 -3 30
70 -61 -29 -80 65 -58 8 36
43 16 7 -96 -31 -52 32 6
-31 -76 -48 111 -86 71 -115 -14
-93 -28 47 16 3 30 8 127
93 101 -38 20 -63 32 39 -36
-7 57 116 78 -22 113 -52 9
-34 -15 117 127 74 106 17 92
35 -58 116 30 107 -60 7 -37
86 101 27 -92 41 36 56 29
62 26 38 75 14 127 8 19
-50 10 28 67 21 31 -83 20
22 -18 34 -40 70 -42 -37 -2

tfl.pseudo_qconst5 i1 [32, 2]
00000000: 6081 ed81 813c 077f 207f 1b81 7fe5 3f7f
00000010: 7f03 f481 81b4 f681 a57f 0281 8118 8126
00000020: f37f 897f a081 7f04 cb81 e881 fa7f 819f
00000030: 817f 7f03 7fba 8174 1581 707f 017f 8102
96 -127 -19 -127 -127 60 7 127
32 127 27 -127 127 -27 63 127
127 3 -12 -127 -127 -76 -10 -127
-91 127 2 -127 -127 24 -127 38
-13 127 -119 127 -96 -127 127 4
-53 -127 -24 -127 -6 127 -127 -97
-127 127 127 3 127 -70 -127 116
21 -127 112 127 1 127 -127 2
