STM32F411_Discovery/STM32F411Discovery_CubeAI_GestureRecognition_MPU9250_AHRS_FreeRTOS/model.tflite (tflite, 16576 bytes, 3 tensors)

tfl.pseudo_qconst1 i1 [3, 64]
0	0x56	86
1	0xad	-83
2	0x0f	15
3	0xbb	-69
4	0xd5	-43
5	0x3a	58
6	0xc8	-56
7	0x35	53
8	0x91	-111
9	0xe6	-26
10	0x62	98
11	0xa1	-95
12	0xd3	-45
13	0x42	66
14	0xc2	-62
15	0xdf	-33
16	0xe1	-31
17	0xaa	-86
18	0xb6	-74
19	0x67	103
20	0x2c	44
21	0xe6	-26
22	0xa4	-92
23	0x29	41
24	0xc8	-56
25	0xdf	-33
26	0x92	-110
27	0x85	-123
28	0xad	-83
29	0x1d	29
30	0x42	66
31	0x84	-124
32	0x81	-127
33	0xbd	-67
34	0xcc	-52
35	0x97	-105
36	0xd6	-42
37	0x24	36
38	0xa5	-91
39	0xe0	-32
40	0x9d	-99
41	0xc2	-62
42	0x96	-106
43	0xac	-84
44	0x18	24
45	0x50	80
46	0xe2	-30
47	0xf5	-11
48	0x3b	59
49	0x16	22
50	0x85	-123
51	0xe3	-29
52	0x66	102
53	0x31	49
54	0xbe	-66
55	0xb7	-73
56	0xac	-84
57	0x39	57
58	0x5d	93
59	0xd2	-46
60	0x33	51
61	0x1c	28
62	0xb8	-72
63	0x4b	75
64	0x81	-127
65	0x74	116
66	0x68	104
67	0x9d	-99
68	0x55	85
69	0x3d	61
70	0x20	32
71	0x92	-110
72	0x70	112
73	0x1b	27
74	0x37	55
75	0x60	96
76	0xe8	-24
77	0xb1	-79
78	0x8b	-117
79	0xd2	-46
80	0x24	36
81	0x5c	92
82	0x89	-119
83	0x84	-124
84	0xac	-84
85	0x3b	59
86	0xbc	-68
87	0x70	112
88	0xb0	-80
89	0xc0	-64
90	0x77	119
91	0x16	22
92	0x68	104
93	0xd8	-40
94	0x3f	63
95	0x0c	12
96	0x09	9
97	0xf5	-11
98	0x33	51
99	0xec	-20
100	0x79	121
101	0xd0	-48
102	0xff	-1
103	0xfe	-2
104	0xb6	-74
105	0x4c	76
106	0xc4	-60
107	0x52	82
108	0x32	50
109	0x4f	79
110	0x36	54
111	0x16	22
112	0x1c	28
113	0x8e	-114
114	0xf1	-15
115	0x16	22
116	0xf5	-11
117	0x48	72
118	0x5e	94
119	0x2a	42
120	0x2c	44
121	0x97	-105
122	0x8a	-118
123	0x39	57
124	0xaa	-86
125	0xaf	-81
126	0x12	18
127	0x90	-112
128	0x19	25
129	0xf1	-15
130	0xb6	-74
131	0x4a	74
132	0xe8	-24
133	0x9f	-97
134	0x96	-106
135	0xaf	-81
136	0xd2	-46
137	0x38	56
138	0x81	-127
139	0xd3	-45
140	0x0c	12
141	0x4d	77
142	0x0c	12
143	0x8a	-118
144	0x64	100
145	0x41	65
146	0xf4	-12
147	0xe5	-27
148	0xb8	-72
149	0x53	83
150	0x0c	12
151	0xe8	-24
152	0x06	6
153	0x65	101
154	0xc9	-55
155	0x3f	63
156	0xed	-19
157	0xde	-34
158	0x94	-108
159	0x43	67
160	0xaf	-81
161	0x31	49
162	0xa5	-91
163	0xfc	-4
164	0xb4	-76
165	0xc7	-57
166	0xd3	-45
167	0x89	-119
168	0x16	22
169	0x26	38
170	0xd7	-41
171	0x90	-112
172	0xb0	-80
173	0xb8	-72
174	0xce	-50
175	0x41	65
176	0xf0	-16
177	0xc3	-61
178	0x31	49
179	0x50	80
180	0xe7	-25
181	0x88	-120
182	0x51	81
183	0x58	88
184	0xb7	-73
185	0xd6	-42
186	0xf6	-10
187	0x13	19
188	0xeb	-21
189	0x73	115
190	0x96	-106
191	0xdd	-35

tfl.pseudo_qconst3 i1 [64, 128]
0	0x35	53
1	0xd0	-48
2	0xf9	-7
3	0x3e	62
4	0x08	8
5	0x43	67
6	0xba	-70
7	0x41	65
8	0x06	6
9	0x52	82
10	0xe3	-29
11	0x1e	30
12	0x0d	13
13	0xdd	-35
14	0x59	89
15	0x0f	15
16	0x68	104
17	0xea	-22
18	0x0c	12
19	0xac	-84
20	0xd0	-48
21	0x09	9
22	0x0e	14
23	0xe0	-32
24	0x63	99
25	0x28	40
26	0x24	36
27	0x64	100
28	0x7f	127
29	0x1e	30
30	0xca	-54
31	0x1e	30
32	0xc9	-55
33	0x25	37
34	0x3c	60
35	0x28	40
36	0x17	23
37	0xb5	-75
38	0x3f	63
39	0xd6	-42
40	0x04	4
41	0xcd	-51
42	0xe6	-26
43	0x48	72
44	0x1b	27
45	0x3e	62
46	0xfc	-4
47	0x51	81
48	0x1a	26
49	0x56	86
50	0xdc	-36
51	0xeb	-21
52	0xf3	-13
53	0x4e	78
54	0x2e	46
55	0x4d	77
56	0x0c	12
57	0x08	8
58	0x24	36
59	0xa7	-89
60	0xf5	-11
61	0xd7	-41
62	0xf3	-13
63	0x10	16
64	0xc6	-58
65	0x5e	94
66	0xd0	-48
67	0x20	32
68	0xcc	-52
69	0x04	4
70	0x4b	75
71	0x3c	60
72	0x4d	77
73	0x63	99
74	0x04	4
75	0x7b	123
76	0x46	70
77	0x6e	110
78	0x56	86
79	0xd5	-43
80	0xfe	-2
81	0x0c	12
82	0x2b	43
83	0x17	23
84	0x2f	47
85	0x72	114
86	0xec	-20
87	0xf4	-12
88	0xef	-17
89	0xaa	-86
90	0x4f	79
91	0x23	35
92	0x59	89
93	0xf2	-14
94	0x4a	74
95	0xb6	-74
96	0x18	24
97	0xcd	-51
98	0x68	104
99	0xab	-85
100	0xe8	-24
101	0x72	114
102	0xe8	-24
103	0x22	34
104	0x16	22
105	0xd2	-46
106	0x50	80
107	0xb0	-80
108	0x27	39
109	0xe2	-30
110	0xe8	-24
111	0x0f	15
112	0xf3	-13
113	0x18	24
114	0xfc	-4
115	0xaa	-86
116	0x1b	27
117	0xe8	-24
118	0xfe	-2
119	0xfa	-6
120	0x5e	94
121	0x63	99
122	0x59	89
123	0xf8	-8
124	0x38	56
125	0x0c	12
126	0xd8	-40
127	0x0d	13
128	0x01	1
129	0xf8	-8
130	0xcb	-53
131	0xba	-70
132	0xd7	-41
133	0x26	38
134	0xd7	-41
135	0x2e	46
136	0x29	41
137	0x92	-110
138	0x8d	-115
139	0x30	48
140	0x04	4
141	0x8d	-115
142	0xe4	-28
143	0xbb	-69
144	0xf0	-16
145	0xb5	-75
146	0x33	51
147	0x1c	28
148	0x31	49
149	0xb3	-77
150	0xe1	-31
151	0x49	73
152	0x14	20
153	0xdb	-37
154	0xac	-84
155	0xcb	-53
156	0xf8	-8
157	0xed	-19
158	0x16	22
159	0x2c	44
160	0x2e	46
161	0x26	38
162	0xd5	-43
163	0x8a	-118
164	0xcb	-53
165	0x4c	76
166	0xf8	-8
167	0xda	-38
168	0xf2	-14
169	0xcb	-53
170	0xed	-19
171	0x84	-124
172	0x55	85
173	0xed	-19
174	0x09	9
175	0xe4	-28
176	0x0e	14
177	0x21	33
178	0x47	71
179	0xad	-83
180	0x23	35
181	0xff	-1
182	0x18	24
183	0x8f	-113
184	0x48	72
185	0xce	-50
186	0x07	7
187	0x55	85
188	0x02	2
189	0x16	22
190	0x30	48
191	0xf8	-8
192	0x37	55
193	0xd3	-45
194	0x3e	62
195	0xdd	-35
196	0x47	71
197	0xe6	-26
198	0x88	-120
199	0xf5	-11
200	0xd4	-44
201	0xe5	-27
202	0xf5	-11
203	0x82	-126
204	0x4f	79
205	0xbd	-67
206	0xa3	-93
207	0x31	49
208	0x1c	28
209	0x17	23
210	0xe9	-23
211	0xf7	-9
212	0xe8	-24
213	0xae	-82
214	0xae	-82
215	0xfa	-6
216	0x33	51
217	0x20	32
218	0x35	53
219	0xe8	-24
220	0xa0	-96
221	0x17	23
222	0x3b	59
223	0x0a	10
224	0xa5	-91
225	0x17	23
226	0xc4	-60
227	0xf3	-13
228	0x0f	15
229	0x87	-121
230	0xc6	-58
231	0xa3	-93
232	0xaa	-86
233	0x0b	11
234	0x13	19
235	0x53	83
236	0x13	19
237	0x09	9
238	0xc1	-63
239	0xc4	-60
240	0xb4	-76
241	0xa8	-88
242	0x2e	46
243	0xcd	-51
244	0x07	7
245	0xfb	-5
246	0x5c	92
247	0x1d	29
248	0xe4	-28
249	0x9a	-102
250	0xb7	-73
251	0x38	56
252	0xe2	-30
253	0x81	-127
254	0x6f	111
255	0x5c	92

tfl.pseudo_qconst5 i1 [128, 2]
0	0x32	50
1	0x81	-127
2	0x81	-127
3	0xc1	-63
4	0x29	41
5	0x7f	127
6	0x7b	123
7	0x7f	127
8	0xea	-22
9	0x7f	127
10	0x81	-127
11	0xb7	-73
12	0x53	83
13	0x81	-127
14	0x91	-111
15	0x7f	127
16	0xa5	-91
17	0x7f	127
18	0x04	4
19	0x81	-127
20	0x09	9
21	0x7f	127
22	0x7f	127
23	0xf7	-9
24	0x81	-127
25	0x7a	122
26	0x7f	127
27	0xa8	-88
28	0x11	17
29	0x81	-127
30	0x3c	60
31	0x81	-127
32	0x30	48
33	0x81	-127
34	0x22	34
35	0x81	-127
36	0x7f	127
37	0xfc	-4
38	0x81	-127
39	0xfc	-4
40	0xea	-22
41	0x7f	127
42	0xe5	-27
43	0x7f	127
44	0xe1	-31
45	0x7f	127
46	0xac	-84
47	0x81	-127
48	0x75	117
49	0x7f	127
50	0x81	-127
51	0x6b	107
52	0x20	32
53	0x81	-127
54	0x0c	12
55	0x81	-127
56	0x05	5
57	0x81	-127
58	0x41	65
59	0x81	-127
60	0x7f	127
61	0xe1	-31
62	0xeb	-21
63	0x7f	127
64	0x81	-127
65	0xbf	-65
66	0xe0	-32
67	0x7f	127
68	0x7f	127
69	0x68	104
70	0x04	4
71	0x7f	127
72	0x37	55
73	0x7f	127
74	0x7f	127
75	0xf8	-8
76	0x81	-127
77	0x49	73
78	0x7f	127
79	0x4b	75
80	0x7f	127
81	0xd8	-40
82	0x81	-127
83	0x6b	107
84	0xe0	-32
85	0x7f	127
86	0x0a	10
87	0x7f	127
88	0x81	-127
89	0x03	3
90	0x11	17
91	0x7f	127
92	0x76	118
93	0x81	-127
94	0xf4	-12
95	0x81	-127
96	0x7f	127
97	0x25	37
98	0x81	-127
99	0x1d	29
100	0x81	-127
101	0xac	-84
102	0x7f	127
103	0x78	120
104	0x7f	127
105	0xdf	-33
106	0x7f	127
107	0x0c	12
108	0xf6	-10
109	0x7f	127
110	0xf5	-11
111	0x7f	127
112	0xc7	-57
113	0x81	-127
114	0x81	-127
115	0xd4	-44
116	0x81	-127
117	0xc9	-55
118	0x5f	95
119	0x7f	127
120	0x81	-127
121	0xc4	-60
122	0x89	-119
123	0x7f	127
124	0x95	-107
125	0x7f	127
126	0x81	-127
127	0x17	23
128	0x7f	127
129	0x6a	106
130	0xd8	-40
131	0x81	-127
132	0x81	-127
133	0x8a	-118
134	0x81	-127
135	0x11	17
136	0xe6	-26
137	0x81	-127
138	0x3f	63
139	0x7f	127
140	0x2d	45
141	0x81	-127
142	0x81	-127
143	0x6f	111
144	0x07	7
145	0x81	-127
146	0xf3	-13
147	0x7f	127
148	0x08	8
149	0x7f	127
150	0x0a	10
151	0x7f	127
152	0x58	88
153	0x7f	127
154	0xf7	-9
155	0x7f	127
156	0x09	9
157	0x81	-127
158	0xe9	-23
159	0x7f	127
160	0x79	121
161	0x7f	127
162	0x7f	127
163	0xf4	-12
164	0x81	-127
165	0x62	98
166	0x7f	127
167	0xec	-20
168	0x1f	31
169	0x81	-127
170	0x02	2
171	0x81	-127
172	0x10	16
173	0x7f	127
174	0x7f	127
175	0xe5	-27
176	0xc4	-60
177	0x7f	127
178	0x7f	127
179	0x41	65
180	0x94	-108
181	0x7f	127
182	0x7f	127
183	0x2d	45
184	0x06	6
185	0x7f	127
186	0xec	-20
187	0x7f	127
188	0x83	-125
189	0x81	-127
190	0xc7	-57
191	0x81	-127
192	0x04	4
193	0x7f	127
194	0x7f	127
195	0xe6	-26
196	0x1e	30
197	0x81	-127
198	0x81	-127
199	0xd0	-48
200	0x7f	127
201	0x7f	127
202	0x14	20
203	0x7f	127
204	0x81	-127
205	0x2f	47
206	0xfb	-5
207	0x7f	127
208	0xee	-18
209	0x81	-127
210	0x8c	-116
211	0x7f	127
212	0xe6	-26
213	0x7f	127
214	0x7f	127
215	0xf5	-11
216	0xd7	-41
217	0x7f	127
218	0x7f	127
219	0xbe	-66
220	0x7c	124
221	0x7f	127
222	0xf4	-12
223	0x7f	127
224	0x6b	107
225	0x7f	127
226	0x15	21
227	0x81	-127
228	0xa9	-87
229	0x81	-127
230	0x81	-127
231	0x03	3
232	0x81	-127
233	0xaa	-86
234	0x7f	127
235	0xee	-18
236	0x7f	127
237	0xfe	-2
238	0x7f	127
239	0xb7	-73
240	0x02	2
241	0x7f	127
242	0x19	25
243	0x81	-127
244	0x22	34
245	0x7f	127
246	0x7f	127
247	0x06	6
248	0x7f	127
249	0xeb	-21
250	0x06	6
251	0x7f	127
252	0x7f	127
253	0x01	1
254	0xc4	-60
255	0x7f	127
